c:\AGH\S6\PSI\Projekt>mc08.py
Found 2790 files belonging to 2 classes.
Using 2232 files for training.
Found 2790 files belonging to 2 classes.
Using 558 files for validation.
Model: "sequential"
_________________________________________________________________
 Layer (type)                Output Shape              Param #
=================================================================
 rescaling (Rescaling)       (None, 256, 256, 3)       0

 conv2d (Conv2D)             (None, 256, 256, 16)      448

 max_pooling2d (MaxPooling2D  (None, 128, 128, 16)     0
 )

 conv2d_1 (Conv2D)           (None, 128, 128, 32)      4640

 max_pooling2d_1 (MaxPooling  (None, 64, 64, 32)       0
 2D)

 conv2d_2 (Conv2D)           (None, 64, 64, 64)        18496

 max_pooling2d_2 (MaxPooling  (None, 32, 32, 64)       0
 2D)

 conv2d_3 (Conv2D)           (None, 32, 32, 128)       73856

 max_pooling2d_3 (MaxPooling  (None, 16, 16, 128)      0
 2D)

 conv2d_4 (Conv2D)           (None, 16, 16, 256)       295168

 max_pooling2d_4 (MaxPooling  (None, 8, 8, 256)        0
 2D)

 flatten (Flatten)           (None, 16384)             0

 dense (Dense)               (None, 512)               8389120

 dense_1 (Dense)             (None, 2)                 1026

=================================================================
Total params: 8,782,754
Trainable params: 8,782,754
Non-trainable params: 0
_________________________________________________________________
Epoch 1/20
70/70 [==============================] - 117s 2s/step - loss: 0.7003 - accuracy: 0.5278 - val_loss: 0.6900 - val_accuracy: 0.5376
Epoch 2/20
70/70 [==============================] - 113s 2s/step - loss: 0.6911 - accuracy: 0.5323 - val_loss: 0.6836 - val_accuracy: 0.5376
…
