c:\AGH\S6\PSI\Projekt>mc02_fix.py
Found 3355 files belonging to 4 classes.
Using 2684 files for training.
Found 3355 files belonging to 4 classes.
Using 671 files for validation.
Model: "sequential"
_________________________________________________________________
 Layer (type)                Output Shape              Param #
=================================================================
 rescaling (Rescaling)       (None, 256, 256, 3)       0

 conv2d (Conv2D)             (None, 254, 254, 3)       84

 conv2d_1 (Conv2D)           (None, 252, 252, 3)       84

 conv2d_2 (Conv2D)           (None, 250, 250, 3)       84

 conv2d_3 (Conv2D)           (None, 248, 248, 3)       84

 conv2d_4 (Conv2D)           (None, 246, 246, 3)       84

 flatten (Flatten)           (None, 181548)            0

 dense (Dense)               (None, 256)               46476544

 dense_1 (Dense)             (None, 4)                 1028

=================================================================
Total params: 46,477,992
Trainable params: 46,477,992
Non-trainable params: 0
_________________________________________________________________
Epoch 1/10
84/84 [==============================] - 230s 3s/step - loss: 1.2866 - accuracy: 0.4400 - val_loss: 1.2556 - val_accuracy: 0.4322
Epoch 2/10
84/84 [==============================] - 196s 2s/step - loss: 0.9887 - accuracy: 0.5510 - val_loss: 1.3775 - val_accuracy: 0.4039
…
