…
Found 3355 files belonging to 4 classes.
Using 2684 files for training.
Found 3355 files belonging to 4 classes.
Using 671 files for validation.
C:\Users\micwik\AppData\Roaming\Python\Python311\site-packages\keras\optimizers\legacy\adam.py:117: UserWarning: The `lr` argument is deprecated, use `learning_rate` instead.
  super().__init__(name, **kwargs)
Model: "sequential"
_________________________________________________________________
 Layer (type)                Output Shape              Param #
=================================================================
 conv2d (Conv2D)             (None, 125, 125, 16)      2368

 conv2d_1 (Conv2D)           (None, 125, 125, 32)      4640

 batch_normalization (BatchN  (None, 125, 125, 32)     128
 ormalization)

 conv2d_2 (Conv2D)           (None, 63, 63, 32)        9248

 batch_normalization_1 (Batc  (None, 63, 63, 32)       128
 hNormalization)

 dropout (Dropout)           (None, 63, 63, 32)        0

 conv2d_3 (Conv2D)           (None, 63, 63, 64)        18496

 batch_normalization_2 (Batc  (None, 63, 63, 64)       256
 hNormalization)

 conv2d_4 (Conv2D)           (None, 32, 32, 64)        36928

 batch_normalization_3 (Batc  (None, 32, 32, 64)       256
 hNormalization)

 dropout_1 (Dropout)         (None, 32, 32, 64)        0

 conv2d_5 (Conv2D)           (None, 32, 32, 128)       73856

 batch_normalization_4 (Batc  (None, 32, 32, 128)      512
 hNormalization)

 conv2d_6 (Conv2D)           (None, 16, 16, 128)       147584

 batch_normalization_5 (Batc  (None, 16, 16, 128)      512
 hNormalization)

 dropout_2 (Dropout)         (None, 16, 16, 128)       0

 flatten (Flatten)           (None, 32768)             0

 dense (Dense)               (None, 512)               16777728

 batch_normalization_6 (Batc  (None, 512)              2048
 hNormalization)

 dropout_3 (Dropout)         (None, 512)               0

 dense_1 (Dense)             (None, 4)                 2052

=================================================================
Total params: 17,076,740
Trainable params: 17,074,820
Non-trainable params: 1,920
_________________________________________________________________
Epoch 1/10
84/84 [==============================] - 167s 2s/step - loss: 2.6577 - accuracy: 0.3506 - val_loss: 2.1820 - val_accuracy: 0.3920
Epoch 2/10
84/84 [==============================] - 159s 2s/step - loss: 2.1868 - accuracy: 0.4430 - val_loss: 1.7675 - val_accuracy: 0.5067
…
